model_weights/best_model.pth (torch_old, 91728 bytes, 8 tensors)

conv1.weight f4 [10, 1, 5, 5]
000000 e3 4b eb 3d a2 68 c4 bd 87 0d bc 3d 47 cc 45 3e
       0.114890836 -0.095902696 0.09182268 0.19316207
000010 d0 14 15 bc 04 b0 44 3e ff c4 49 3e 61 ac 4a 3d
       -0.0090992 0.1920777 0.19704054 0.0494808
000020 de 3e 01 bd d9 08 af 3d 63 ff a6 3e 35 4f 8c 3e
       -0.031554095 0.085466094 0.3261672 0.2740418
000030 2b ed 37 3b a3 76 cb bd 9f b5 10 3d 92 53 b7 3d
       0.0028064947 -0.099347375 0.035329457 0.08951487
000040 7e 5d 84 3e 43 ea 18 3e 94 c3 55 3e 1f 2f 7f 3e
       0.2585258 0.14933114 0.20875388 0.24920319
000050 3a 7a 64 bd 6a d8 2b 3d 78 c6 f7 3d e8 a5 27 3e
       -0.055780627 0.041954435 0.12098402 0.16371882
000060 7c 9b 20 be ff 25 85 bc 8c e8 aa 3e 67 ed 96 3e
       -0.15684313 -0.01625347 0.33380544 0.29478
000070 af 4e 57 bc 29 f2 02 3e f3 24 05 3e ba 8a a4 3e
       -0.013141318 0.1278769 0.13002376 0.3213709
000080 0f fa c2 3d 69 2e b4 bd 16 e2 1f 3e 3a f1 91 3e
       0.09520351 -0.087979145 0.15613589 0.28504354
000090 32 53 cb 3c f7 c0 23 3e a7 f5 ce bd 6e f5 32 be
       0.024819944 0.15991579 -0.10105448 -0.17476436
0000a0 d6 d4 db 3d 90 9f 85 3d 76 76 68 3d fe b1 8c be
       0.107339546 0.06524575 0.0567536 -0.27479547
0000b0 8f 19 73 be fa 94 92 bd ce 43 82 be 19 05 5b be
       -0.23740219 -0.07157321 -0.25442356 -0.21388663
0000c0 a0 11 8d be 78 cb 04 be 0b c5 a8 3e df cc 6f 3e
       -0.2755251 -0.12968242 0.32962832 0.23417996
0000d0 e4 be 49 3e a6 52 9e 3e 93 06 62 3e ce 77 26 3e
       0.19701725 0.3092243 0.2207282 0.1625664
0000e0 bb a3 31 3e 39 2d 60 3e 6c 2b 3d 3e 42 78 d3 3d
       0.17347614 0.21892251 0.18473595 0.10325672
0000f0 5c ce 06 be 05 93 19 3e 4f eb 73 3d 7e 31 98 3e
       -0.13164657 0.1499749 0.05955058 0.2972526
000100 9c 1c 2a 3e c4 f1 87 bd 6a d1 01 be 04 7f 17 bd
       0.16612476 -0.0663791 -0.12677541 -0.036986366
000110 ca 74 47 3e 4c ce 7d 3c bd 73 7e 3d 07 73 5a be
       0.19478145 0.01549108 0.062122095 -0.21332942
000120 3e 8a 02 be ad 16 80 bd 56 42 57 bd 7e 99 f2 bc
       -0.12748048 -0.06254325 -0.052553497 -0.029614206
000130 f4 2c 47 bd dd 94 aa 3c 78 24 49 be 5d 84 ce bd
       -0.048626855 0.020822937 -0.19642818 -0.1008384
000140 45 5f 86 3e f5 69 49 3e 2c 09 18 3e 33 e8 9d bb
       0.2624456 0.19669326 0.14847249 -0.00481894
000150 4d ba b1 bb 0e 66 59 3e 63 13 8a 3e 47 b4 1c 3d
       -0.00542382 0.21230337 0.26967916 0.038257863
000160 e7 18 de bc f2 51 73 be 4a b7 60 3e 85 35 ab 3d
       -0.027111484 -0.23761728 0.21944919 0.083598174
000170 d5 29 58 be d7 51 84 be 49 b6 b1 3d 95 b6 f4 bd
       -0.21109708 -0.2584369 0.08677346 -0.11948887
000180 62 a1 7d 3c 87 9f 90 bd 4c 5c 95 3c a4 bc 99 be
       0.015480371 -0.070616774 0.018232487 -0.30026734
000190 d1 3f 0c 3e c8 a8 00 be fd d3 6e 3e 61 21 36 3e
       0.13696219 -0.12564385 0.23323055 0.1778617
0001a0 4d bc d8 bd 2f bc 16 3e 6f 90 83 3e 12 51 aa 3d
       -0.105827905 0.14720224 0.25696132 0.08316244
0001b0 bb 69 88 bd b7 8f ee 3d 2a 0f e3 3d 62 f9 63 bc
       -0.066607915 0.11648505 0.11086877 -0.013914438
0001c0 04 d9 b9 3d 50 7d d2 bd e3 ee 31 3e 17 ed ae 3d
       0.090745956 -0.10277808 0.17376284 0.08541315
0001d0 be fe eb 3b 52 86 13 be b2 8c 5a bd cd ff 6f 3e
       0.0072019985 -0.14406708 -0.053356834 0.23437424
0001e0 83 f1 dd 3d 94 87 10 bd 94 27 a2 3d fa 4f f1 3d
       0.1083708 -0.035285547 0.07917705 0.117828324
0001f0 01 04 69 3e 76 08 41 be 32 b1 a4 3d cf 6b d6 3d
       0.22755434 -0.18850884 0.0804161 0.104697816
000200 05 bf 1a 3e 81 9f 44 3d 2e ad bb 3d a5 a0 55 3e
       0.1511193 0.048003677 0.09163891 0.20862062
000210 cc a9 4a 3e d0 79 9a bd 66 fa 80 3e b7 77 f6 bd
       0.19791335 -0.07542765 0.2519104 -0.120345525
000220 af 89 09 bd db 53 48 3e b0 95 4e bd 59 30 11 3e
       -0.03357857 0.19563238 -0.050435722 0.141786
000230 a4 b8 0c be 85 ad 82 bc fd aa 8b 3c 5f e2 aa 3d
       -0.1374231 -0.015951881 0.017049307 0.08343958
000240 4d 1a 25 3e e1 0d b1 3d d6 92 3e 3e 34 c2 18 3b
       0.16123314 0.08645225 0.18610701 0.0023309113
000250 c6 3b f0 bd e7 bb 40 bd 15 db 40 3e e9 52 03 be
       -0.11730151 -0.047054198 0.18833573 -0.12824596
000260 5b a9 30 bd 8d 7c c7 bc 36 9a 0a 3e d1 71 14 bd
       -0.04313026 -0.024351383 0.1353539 -0.036241356
000270 53 4b 05 3d ad 9c 62 3e 6e 68 99 3e d4 8d c1 bc
       0.032542538 0.2213008 0.29962486 -0.0236272
000280 18 a8 9a 3e 0d c1 e4 3d e7 ca 96 3e 39 7d 3c 3e
       0.3020637 0.11169634 0.29451677 0.18407144
000290 f3 ea 90 3e ba fd 7f 3e fe c6 8f 3e e9 48 75 3d
       0.28304252 0.24999133 0.28081506 0.059883986
0002a0 94 59 e8 bd 9f 24 f3 3c b4 0f 15 bd bf 14 ac bd
       -0.11345211 0.029680548 -0.03639193 -0.084023945
0002b0 51 e6 78 bd c0 59 25 be d3 34 49 3e 05 13 2d be
       -0.06076652 -0.16147518 0.19649057 -0.16901787
0002c0 97 3e c6 bc f5 34 04 be 94 e0 04 be 29 16 ef bb
       -0.024199767 -0.12910827 -0.12976295 -0.007296343
0002d0 42 35 23 be 30 1d c5 bd 35 ab 2e be a7 6c 18 3e
       -0.15938285 -0.09624708 -0.17057498 0.14885198
0002e0 fd 12 40 3e 51 ef b4 bd 11 5d ba 3d 24 6e 6c 3d
       0.18757243 -0.088347085 0.09099782 0.057722226
0002f0 e8 01 40 3e 4e 1f 54 bc c4 0e 23 be 6f 1e 46 3e
       0.18750727 -0.012946917 -0.15923601 0.19347547
000300 02 5f 32 3e b8 ef c0 bd 36 e8 82 bc 60 e6 03 be
       0.17419055 -0.09420723 -0.015979867 -0.1288085
000310 36 d3 c8 bc 58 e8 13 be 70 7c 3b 3e b5 77 1b be
       -0.024514776 -0.14444101 0.18309188 -0.15182383
000320 f7 bf 47 3e ca a6 2c 3e aa 27 33 3e 64 98 04 be
       0.19506823 0.168605 0.174956 -0.12948757
000330 ef 84 9c bd 9c 1c 14 3d b3 10 0c 3e 1c 4a 7f 3e
       -0.076425426 0.036160097 0.13678245 0.24930614
000340 1e 87 44 3e 3e 97 1b 3e 5c f9 81 3d 5a 2d 82 3e
       0.19192168 0.15194413 0.0634639 0.25425225
000350 12 8c b1 3e ad e5 91 3d 18 76 06 bd c9 0c 7e 3e
       0.34677178 0.07123885 -0.032827467 0.24809565
000360 c1 55 8f 3e 18 90 dd 3e 7c 2c d0 3e 9f d2 5e 3e
       0.27995113 0.43273997 0.4065894 0.21760033
000370 60 b1 21 bd 2d 6a 49 3e 2d 95 3a 3e 44 50 72 3e
       -0.0394758 0.19669409 0.18220969 0.23663431
000380 2a 2d bc 3e 91 a8 b4 3e 15 13 9e 3e 0e 94 ca 3e
       0.36753207 0.35284856 0.30873933 0.39566082
000390 38 af 35 3e ba e9 19 bd 45 7e 65 3e d0 2f e0 3e
       0.17742622 -0.037576415 0.22411449 0.43786478
0003a0 ba 50 ee 3e e1 b9 29 3e d4 da a7 3e 4a c0 ae 3e
       0.46545964 0.16574813 0.3278414 0.3413108
0003b0 5f cd 36 3e 47 08 8c 3e 90 af e3 3e e5 c4 cd 3e
       0.1785178 0.27350065 0.4446988 0.4018928
0003c0 09 da c1 3e 65 2b b5 3e 6d f2 8c 3e 8f 53 9f 3d
       0.3786166 0.3538467 0.27528706 0.077796094
0003d0 82 be a1 3e c9 f1 02 3e 71 ee 85 3e b3 37 3a 3e
       0.31590658 0.12787546 0.2615848 0.1818531
0003e0 13 65 bc 3c d5 a3 c7 bd
       0.022997415 -0.09748045

conv1.bias f4 [10]
000000 aa 07 14 3e 56 44 b0 bd 1d 76 41 3e cf 81 8c bb
       0.14456049 -0.08606784 0.18892713 -0.0042879353
000010 79 8d ef 3d 8c a1 1f be 95 4e 10 be 18 ab 99 bd
       0.11696906 -0.15588969 -0.14092477 -0.07503337
000020 5f ab 18 3d 7b e6 37 3c
       0.037272807 0.011224384

conv2.weight f4 [20, 10, 5, 5]
000000 e3 ee 4a 3d 82 77 3e 3c 73 88 04 3d 19 a8 6f bd
       0.049544226 0.011625173 0.03235669 -0.05850992
000010 ee 38 8b bd 17 89 30 3c fb 63 87 bd 6b a0 3a bd
       -0.06797968 0.010774872 -0.06610867 -0.045563143
000020 ef 17 07 bd 59 55 08 bd 95 74 2f 3d 03 31 0b 3b
       -0.03298181 -0.03328452 0.04283579 0.002123893
000030 19 1e 06 bd e6 13 28 bd 31 b6 3a bd 34 e9 d4 bc
       -0.032743547 -0.0410346 -0.045583908 -0.025990106
000040 de c0 6b 3c 29 c7 e4 3c 38 fd 66 bc e3 5a b0 3d
       0.014389245 0.027926998 -0.014098458 0.08611085
000050 91 68 9a bb 3c 2d b9 3d 5a 9f a1 3d 1b a2 09 3d
       -0.0047121723 0.09041831 0.07891722 0.03360186
000060 23 25 eb bc 3c c6 9f 3d b7 92 8c 3d 0b df d8 bc
       -0.028704232 0.07801482 0.06863921 -0.026473543
000070 f2 81 3d bd 78 7f 70 3d e2 5a c9 3d af ee b3 3b
       -0.046266504 0.058715314 0.09831788 0.0054911
000080 ea 8e 7c bc 40 23 84 3c c0 4e 9f bc 83 51 95 bc
       -0.015414933 0.01613009 -0.01944673 -0.018227344
000090 66 b3 39 bd 41 10 b9 3c 70 11 55 3d 50 24 ef 3b
       -0.045337103 0.022590758 0.052018583 0.00729803
0000a0 37 4d 34 bd 6a bb a5 bd aa 81 8c bc 78 ef 17 3d
       -0.04401895 -0.08092387 -0.017151672 0.03709361
0000b0 12 30 9b 3c ac 6d 35 bc de 75 3d 3c 7e c5 24 3d
       0.01894382 -0.011073511 0.011563746 0.040227406
0000c0 32 06 e0 37 32 3b 8b 3d 8c 08 57 3d 7f a1 7d 3d
       2.6705766e-05 0.067984 0.052498385 0.061921593
0000d0 50 e1 05 3c da ac 8f bd e3 97 2b bc 61 87 95 bd
       0.0081713945 -0.07015391 -0.010473224 -0.07301212
0000e0 b2 a9 9e bc ed a7 09 bd 89 4d 65 bd ec 56 94 bc
       -0.019368026 -0.033607412 -0.055982146 -0.018107854
0000f0 4c 2f c7 3c 88 26 04 be f8 a1 cf 3c 3c 6a 2b 3d
       0.024314545 -0.12905324 0.025345787 0.04184936
000100 a4 0f 93 bc b1 2c f8 3b 62 44 34 bd 94 a6 97 bc
       -0.017951794 0.007573687 -0.044010527 -0.018512048
000110 98 49 18 3c 72 da 78 3d 1b 17 a3 3c 5b 09 93 3d
       0.00929489 0.0607552 0.019908478 0.07179519
000120 ea bd 67 bb bc 36 29 bc cf 32 14 bc 15 80 27 3d
       -0.0035361 -0.010327991 -0.009045317 0.040893633
000130 69 3f 43 3d 47 cd b8 3c 81 86 53 3d c7 01 da 3b
       0.047667895 0.022558821 0.051641945 0.006653044
000140 c5 97 c7 3d e2 1d 51 3c 8a 50 7f bd 5d e1 32 3c
       0.097457446 0.012763472 -0.062332667 0.010917989
000150 28 dd 93 3d ac 03 b5 bc 54 61 79 3d 67 77 69 bd
       0.072199166 -0.022096477 0.060883835 -0.056998637
000160 85 83 1f 3d 3b 6e 3f 3d 97 eb 9d bc aa 90 46 3d
       0.038943786 0.046735983 -0.019277377 0.048477806
000170 c1 e4 46 3d 69 f3 09 3c ce 1b 07 3d 01 af 0c 3d
       0.048558 0.00841985 0.0329855 0.034346584
000180 25 29 89 bb a4 65 99 3d 07 52 be bc e6 41 77 bd
       -0.004185813 0.074900895 -0.023232473 -0.06036558
000190 ba d0 33 bd ce b4 0a 3c 9d df 4e 3c 3d 0f d3 bc
       -0.04390023 0.008465959 0.012626556 -0.025764102
0001a0 d1 92 41 bc d4 d0 14 bd d4 0d 4c bd da a3 d4 3c
       -0.011814789 -0.036331967 -0.049817875 0.025957037
0001b0 ef 4a dd 3b 6c 6e 5e bd 71 97 3d bd 0f ff 9a bd
       0.0067533175 -0.054304525 -0.046287004 -0.0756818
0001c0 95 a7 a0 bd 96 d3 cc bc ad c0 96 3b 8a 4d 98 3d
       -0.07844464 -0.025003236 0.0046006055 0.074366644
0001d0 a1 ca 54 bd c6 3a dc 3b fd 2e 17 bd 29 4a 27 3d
       -0.051951054 0.0067208735 -0.036910046 0.04084221
0001e0 d2 2b 2c 3d 64 9c b0 3d cb b7 08 bd 08 ee ef 3c
       0.042033978 0.08623579 -0.033378404 0.029288307
0001f0 b1 22 17 3c 0c eb 77 3c 0e 4b 5d 3d bd 50 0f bd
       0.00922458 0.015131723 0.054026656 -0.034989107
000200 c2 ba 94 3c bb 38 ac 3c 89 58 5b bd 9c 89 75 bb
       0.01815546 0.021023145 -0.05355123 -0.0037466055
000210 ca 82 b3 3c f9 b5 22 3d b4 86 d4 bc 32 93 7f bd
       0.021912951 0.039724324 -0.025943138 -0.062396236
000220 55 e4 88 3c af 7d 9d 3a 6c a2 35 3d f6 8f 1b 3d
       0.01671044 0.0012015606 0.04434435 0.03797909
000230 f9 89 35 bd a3 be b0 3c bc 2c 2a bd 32 4a a1 bc
       -0.044321034 0.021575278 -0.04154657 -0.0196887
000240 eb 7d 3a 3d 90 f8 9c 3d a0 33 5b 3d 21 ac 99 3d
       0.04553024 0.07664597 0.05351603 0.07503534
000250 68 ad b5 3a d8 37 01 bd 57 54 99 bc a2 3e cf 3c
       0.0013860883 -0.031547397 -0.018716974 0.02529842
000260 6a a1 e0 3c 01 c3 3a 3d 71 38 89 bc d1 4e 81 bd
       0.027420718 0.045596126 -0.016750546 -0.06313861
000270 00 f3 80 bd be a7 ac bd 96 fc ea bb 98 f8 aa 3a
       -0.062963486 -0.08430432 -0.007171224 0.0013044057
000280 14 33 53 bd fe 46 96 bc 0c df 49 b9 52 23 78 3d
       -0.051562384 -0.018344399 -0.00019251945 0.06058056
000290 6c 39 f2 bb 7f 0f 3d 3d 7a 21 42 3d e4 8b 94 3b
       -0.007392099 0.046157356 0.047395207 0.004533278
0002a0 05 42 b0 bb 8f 64 54 3d 90 4d a0 3d cd d2 be 3d
       -0.005378964 0.051853713 0.07827294 0.09317551
0002b0 d7 c8 b3 3d c3 2f a8 3d ad aa 1e 3d 80 05 ed bc
       0.087785415 0.08212235 0.038736988 -0.028933287
0002c0 4d bc f3 bc 24 2c 1b bc 3e ea a9 3c c4 d9 23 3d
       -0.029752875 -0.009470973 0.020741578 0.0400026
0002d0 4c 95 1a 3c 8d 87 55 3d 8f d1 8a 3c 77 39 40 3d
       0.009435009 0.052131224 0.016945628 0.046929803
0002e0 81 a8 3f bd 9d 4d 45 3d 93 30 23 3d 24 6b 29 bd
       -0.046791557 0.04816972 0.039841246 -0.041361943
0002f0 ea 29 a7 3c 23 0e 08 bd f5 bc 1d bd 9c 1b e2 3c
       0.020405728 -0.033216607 -0.03851028 0.027601056
000300 e9 dd 3c bd a8 fb 1b bd 9b 9a 3c bd 34 cf 25 3c
       -0.046110068 -0.038081795 -0.04604588 0.010120202
000310 f9 d6 8d 3c 3b f1 10 3d 2a 52 d6 bc 27 33 13 3d
       0.017314421 0.035386305 -0.026162226 0.035937455
000320 cb 37 92 bd 38 e5 eb bd 33 26 8a bd 5c 80 11 3d
       -0.07139548 -0.115183294 -0.06745567 0.035522804
000330 88 28 e3 bc b4 39 90 bd f5 dc 28 be 94 5f a9 bd
       -0.027729288 -0.07042256 -0.16490538 -0.08270183
000340 6a fd 12 bc 8d ae 86 3b 99 ae aa bd 1d 08 9a bd
       -0.008971551 0.0041101635 -0.08334083 -0.07521079
000350 c4 63 00 be 35 7c 42 bc df 83 a2 3d 3b 82 c1 3d
       -0.12538058 -0.011870434 0.07935309 0.094486676
000360 78 ac 55 3d 89 63 77 bd 11 a0 ab bc 1d ce a0 3d
       0.052166432 -0.06039766 -0.020950349 0.07851813
000370 27 8e 03 3e 7e 9d 1a 3e c2 cf a8 3d 2a a5 67 3d
       0.12847196 0.15099141 0.08242752 0.056553997
000380 59 f6 c6 bb ea 3d 6b 3c f6 1a ba bd 8c 29 b9 bc
       -0.0060718474 0.014358023 -0.09087174 -0.022602819
000390 1d 8e 6b bc d8 15 16 3c a6 32 e5 bb ad ab 0e be
       -0.014377144 0.009160481 -0.006994563 -0.13932677
0003a0 84 f9 c5 bd 33 97 33 3d 4b 97 52 3d 6f 4a 24 bd
       -0.09666732 0.043845367 0.051413815 -0.040110048
0003b0 25 21 5b be 4b 98 17 be 5e 1d 8f bd a0 f1 9f 3d
       -0.21399362 -0.14804189 -0.06988023 0.07809758
0003c0 ff c5 01 3d 3d fa f6 3c 8b 69 8c bb 42 a0 0b bd
       0.031682964 0.03014862 -0.0042850426 -0.03408838
0003d0 4e f4 ac 3d db f9 0a 3e f8 a3 00 3e d9 28 c0 3d
       0.08445035 0.13571875 0.12562549 0.09382791
0003e0 8c 31 a8 3d 8e c2 21 3e 88 31 5f 3d b1 05 86 3d
       0.08212575 0.15796873 0.054490596 0.06544054
0003f0 fa f1 13 bc 0c f3 ef 3c bc f8 27 bc 4d 37 18 bc
       -0.00902986 0.029290698 -0.010252174 -0.0092905285

conv2.bias f4 [20]
000000 d1 3a 2c bc 82 96 2d bd 22 54 35 3d 44 f8 24 3c
       -0.01051207 -0.042379864 0.04426969 0.010068957
000010 7b 1b 03 bd e1 31 49 3c 7e 89 e3 3b d2 4d 7d bd
       -0.03200863 0.012279958 0.0069438806 -0.061841793
000020 0c ba 11 bc f0 02 48 3d 3d 99 6f bd 25 64 b1 bb
       -0.008894455 0.048830926 -0.05849575 -0.0054135495
000030 b5 26 4c 3d a4 7f 47 3d 52 82 53 bc 10 3c 68 bd
       0.0498416 0.048705712 -0.012909489 -0.056697905
000040 13 f3 d2 3c 11 b2 90 bc 51 7a 98 bd ee c6 78 bc
       0.025750672 -0.017663034 -0.07445205 -0.015184147

fc1.weight f4 [50, 320]
000000 c1 8b a8 3d 91 76 c3 3d b1 ec 6c bd 65 14 ca bb
       0.08229781 0.09544099 -0.057842914 -0.006166982
000010 8b 65 aa 3d 9e 7e ab bc 11 51 bb bb 87 1f 65 3c
       0.08320149 -0.0209344 -0.005716451 0.0139845675
000020 a1 05 d5 3c bc d1 72 3c d8 e7 c4 3c fb 51 3c 3d
       0.02600366 0.014820512 0.024036333 0.04597662
000030 4f 9f 07 bd 5b 0d 85 bc d6 0c 22 bd 53 17 04 bc
       -0.033110913 -0.01624172 -0.039563023 -0.008062202
000040 a1 90 fb bc 43 29 fa bc d9 b4 37 bd bd ba bb bc
       -0.030708613 -0.030537253 -0.044850204 -0.022916192
000050 d3 db 29 3d 41 68 5b bc 85 1b 1e bd 77 db 81 bc
       0.041469406 -0.013391555 -0.038600463 -0.01585172
000060 90 55 47 3c 76 6a 0b bd d4 e5 2c bd 5d dc 7c 3d
       0.012166396 -0.034037076 -0.04221137 0.061733592
000070 af f3 8b 3d 6d 2c 03 3d fe 96 81 bc c5 87 ab 3c
       0.06833588 0.03202479 -0.015819069 0.020938763
000080 64 d9 3c 3d 9d 2b b6 3c a4 f6 b6 3d d9 52 c7 39
       0.046105757 0.022237593 0.08933762 0.00038017964
000090 54 3d 70 3d 1b e3 48 3c 35 86 ae 3c 15 15 84 bd
       0.058652237 0.012261177 0.02130423 -0.064493336
0000a0 3d c7 48 3d aa 48 91 bd 9f 40 13 3d 03 1c 64 bd
       0.049018133 -0.07093938 0.0359503 -0.055690777
0000b0 60 55 5c 3d 6b a2 18 3a 18 df 92 3d 7b 3e 57 3d
       0.053792357 0.0005822542 0.07171458 0.05254982
0000c0 1b 0c 4d 3d 65 36 0b bd 2f cd 31 3d 47 67 e8 3d
       0.050060373 -0.03398742 0.04340857 0.113478236
0000d0 df e0 ad 3b e9 88 76 3c 96 6f 68 3d b3 a8 96 3d
       0.0053063477 0.01504729 0.05674704 0.073563956
0000e0 af da 14 bd c7 b9 0c 3d c2 4b a3 bd f6 e4 03 38
       -0.036341365 0.03435686 -0.07973434 3.144607e-05
0000f0 ef 1f b0 3b 5e cd 40 bd 97 9d 06 3d 86 22 1d 3d
       0.0053749005 -0.047070853 0.032865133 0.038363002
000100 12 ab ac 3d 74 cc 99 b7 ae 00 13 bd e4 eb ac 3d
       0.084310666 -1.8334227e-05 -0.03588932 0.0844343
000110 51 0d 1a 3d 35 1d a4 bd 92 40 0e 3c c9 ef 8f 3d
       0.037610356 -0.08013383 0.008682387 0.07028157
000120 13 63 51 bd 0f 0b 23 bd f9 12 40 bd 50 2e 9b 3c
       -0.051119875 -0.03980547 -0.046893094 0.018942982
000130 b3 7a b2 bd 6a bb d2 3c 2d b5 5b bd 35 16 4c 3a
       -0.08714809 0.025724132 -0.05363958 0.00077852915
000140 8a 77 49 bc 7f db 9b bc b8 b8 4d bd 02 13 42 bd
       -0.012296567 -0.019025562 -0.05022499 -0.04738141
000150 49 33 40 3b 2d 5f 7c 3d 12 b5 84 bd 21 4a 5a 3d
       0.0029327443 0.061614204 -0.06479849 0.05329335
000160 4c 90 7a 3d bc 4d 3e 3d 95 ea 8d 3c 2c 49 4d bc
       0.06117277 0.046460852 0.017323771 -0.012529653
000170 b9 2e 8b 3d 8f 8f 14 3c 7f e3 8c 3d c8 6f 28 bd
       0.06796021 0.00906743 0.06879329 -0.041122228
000180 56 96 ec 3c a1 ef 25 bc 40 8b 42 3d 2e fe 86 3c
       0.02888028 -0.010127933 0.04749608 0.016478624
000190 9c 42 55 bd d2 fe 80 3d 68 6b 28 bc 42 f0 2e 3d
       -0.052065477 0.06298603 -0.010279514 0.042709596
0001a0 2e 15 50 bc 76 1e fe bc fa 7f bd ba 35 0a 1e 3d
       -0.012700362 -0.031020384 -0.0014457696 0.038583953
0001b0 24 3e 00 3d d4 19 97 3c b2 2e 34 3c fb 16 ff bb
       0.031309262 0.018444933 0.010997461 -0.007784722
0001c0 c8 ff fd 3c f8 69 28 3d 04 26 91 3b e6 24 94 bd
       0.031005755 0.041116685 0.0044295806 -0.072336
0001d0 e4 b1 fc 3b bc 43 32 3c 0e 69 64 bd 5e ff 9f bd
       0.007711636 0.010880407 -0.05576425 -0.07812379
0001e0 06 7c 99 3d 67 6b d7 bc e8 ac d2 bc a0 2d b7 bd
       0.07494359 -0.02629633 -0.025717214 -0.08944249
0001f0 b8 a1 50 bd 3f ee 3d bd b6 11 76 3c 57 3a 7c bd
       -0.050935477 -0.046369787 0.015018871 -0.061579075
000200 7d b6 e6 3c 91 70 23 3c 09 5e bb bc b5 0b 22 3d
       0.028163189 0.009975568 -0.022871988 0.039561946
000210 ac 48 41 bd e5 6d 22 bd ca 95 43 bd 91 59 ee bb
       -0.047188446 -0.039655585 -0.04775027 -0.0072738607
000220 08 c7 60 bd 92 91 9d bc 9c 27 81 3b 9c 74 b8 3c
       -0.05487731 -0.019234452 0.0039414894 0.022516541
000230 cb 0b 21 3b 25 1b 50 3d cb d8 11 3d ef 69 0b 3b
       0.002457368 0.050807137 0.03560714 0.0021272858
000240 f5 09 98 bd c0 78 09 3c 89 97 4e bd ea c7 ac bd
       -0.07423774 0.008390605 -0.050437484 -0.08436568
000250 3f 58 96 bb 0d fd 0e 3b 0a 12 11 3d eb de 60 bd
       -0.0045881565 0.002181831 0.035417594 -0.05490009
000260 e0 8c 91 bd 7a be d7 bc f4 65 2b 3d c4 94 56 b9
       -0.07106948 -0.026335943 0.041845277 -0.0002046405
000270 bc d5 e0 bb b3 6e bb 3d 7b b3 03 3d 73 1d 15 3d
       -0.0068614166 0.091519736 0.032153588 0.036405038
000280 22 6f 14 3c de 9a f8 bc e6 a7 61 bc 0d 16 98 bc
       0.009059699 -0.030347284 -0.01377294 -0.018565202
000290 5d 0a 14 3d ac de 00 bd 3e 0e 42 3d 8c 49 a6 bb
       0.036142696 -0.031462356 0.047376864 -0.0050746854
0002a0 4d f5 08 3d 6b cf 0c 3d e5 6b 1c bd 47 83 a9 bd
       0.033437062 0.034377497 -0.038188834 -0.08276992
0002b0 88 c9 f5 bc ab dd 94 bd 02 19 a8 3d 78 8c bc bc
       -0.030003324 -0.07268842 0.08207895 -0.0230162
0002c0 1c e2 32 bd 65 12 88 3c 3e 21 c1 3c 92 e0 ee 3b
       -0.043672666 0.016610334 0.023575421 0.0072899545
0002d0 94 2e 33 bd 46 81 a0 bc 5f 7d 43 3d e0 32 93 bb
       -0.043745592 -0.019592892 0.047726985 -0.0044921488
0002e0 b9 d4 a4 3c 09 1e 1a bd f8 ee 10 bd 98 cc 1f bb
       0.020120965 -0.0376263 -0.03538415 -0.0024383422
0002f0 79 da 34 3d 4e 6e 1a 3d 29 c7 13 bd 9b bc 7a bd
       0.044153664 0.03770285 -0.036078606 -0.061215024
000300 da ae 94 3d 00 87 73 3d 43 8f 90 bb 16 f1 05 3d
       0.07259913 0.059454918 -0.0044116094 0.03270062
000310 38 1b 33 3c c2 63 90 3a ce 6b bc bc 82 81 af bc
       0.010931782 0.0011016058 -0.023000624 -0.021424059
000320 5a 71 39 bc f2 c9 93 bd 2f 03 6c bd 9e b3 ed bc
       -0.011318529 -0.072162524 -0.057620224 -0.029016312
000330 37 24 b1 bb 4f 7b a6 3d 20 cd f3 bb 2c 2a 23 3c
       -0.0054059285 0.08128988 -0.0074402243 0.009958785
000340 10 50 ce 3b ec a7 97 bd 53 c7 88 3c cf 95 23 3d
       0.0062961653 -0.074050754 0.016696608 0.03993779
000350 3c be 81 3d 04 9a 83 3c 70 b2 9c 3b 1b 04 8c bd
       0.063351125 0.016064651 0.0047820136 -0.068367206
000360 84 e3 55 3d ed bb 39 3d 1d ea f1 3c 76 b6 28 bd
       0.05221893 0.045345236 0.02953058 -0.041189633
000370 cd 32 0b 3d 13 d3 11 bd f9 a8 3e bd 1a c5 60 3c
       0.033983994 -0.035601687 -0.046547864 0.013718868
000380 75 52 a3 3d a2 6a 1a bc 5e ab d4 3d 55 dd 08 3c
       0.07974712 -0.009424837 0.10384248 0.008353551
000390 8c 2d 8d 3d 76 20 21 3d f0 7e a5 3c ea 76 ca 3c
       0.06893453 0.039337598 0.02020213 0.024714906
0003a0 7a 58 e1 3d 52 a3 e0 bd fc d6 01 bd 2a 52 cb bc
       0.11003204 -0.10968651 -0.031699166 -0.024819452
0003b0 1a 12 52 3c 5f 04 f4 bd c4 7c d6 bb 84 71 29 bd
       0.012821699 -0.11914896 -0.006545635 -0.041368023
0003c0 23 e6 94 bd d2 3a 08 3b cb f2 17 ba 32 1b a3 3c
       -0.072704576 0.0020787013 -0.0005796372 0.019910429
0003d0 64 c5 8e 3c 3d 55 05 bc f4 e7 28 bd c6 5e e5 3c
       0.017428108 -0.008137998 -0.041236833 0.027999293
0003e0 3f a7 38 bb b4 a2 a6 bd fa d8 56 3d 21 f1 5a 3d
       -0.0028175858 -0.08136502 0.05245302 0.053452615
0003f0 0e f8 ab 3c 07 38 04 3d b9 c0 05 bd 9a c6 02 b9
       0.020992305 0.032279994 -0.032654498 -0.00012471751

fc1.bias f4 [50]
000000 61 08 14 bd 1d c0 df bc cc a2 f3 bc ee 08 5d 3c
       -0.036140803 -0.027313286 -0.029740714 0.013490899
000010 4c ef 2e 3d de ab 43 bc 68 dc a7 3b fe f2 be 3c
       0.04270868 -0.011942832 0.00512271 0.023309227
000020 ab dd 02 bd 5f b2 25 3d cd 5c e6 3c 74 10 06 bd
       -0.03194968 0.04045331 0.028120423 -0.032730535
000030 95 95 28 bd 35 3a 3d 3d 77 a5 2b bd 23 f3 60 3c
       -0.041158278 0.04619809 -0.041905846 0.013729843
000040 71 e6 0a bd 58 a1 80 bd 9b 40 01 bc 74 94 0f bd
       -0.033911172 -0.06280774 -0.007888938 -0.035053685
000050 ad 8e 66 bc 8c 8f 28 3d 69 f6 bd 3c 27 47 87 3c
       -0.0140721025 0.041152522 0.023188787 0.01651342
000060 43 19 83 bd f5 fe fd 3c e4 87 6a bd 89 24 41 bd
       -0.06401303 0.031005362 -0.0572585 -0.047153983
000070 60 55 29 bd 4d f9 09 bc e4 29 48 3b 4c 00 5c bc
       -0.041341186 -0.008421254 0.0030542547 -0.013427805
000080 44 1f 3f bd 1a 42 78 bc ea 81 15 bd 47 e5 20 3d
       -0.046660677 -0.015152479 -0.03650085 0.039281156
000090 ca dd b7 bb 8f 9e 64 3d f7 37 f7 3c 69 ae a5 3c
       -0.005611156 0.055815276 0.030178053 0.020224767
0000a0 6d 24 8a 3c a3 b8 14 3d 7c 55 bd 3c 7c 55 41 bd
       0.016863072 0.036308896 0.023112051 -0.047200665
0000b0 56 b0 35 3d 88 d9 69 3d 79 7f cf 3c e9 38 27 bd
       0.04435762 0.05709222 0.025329338 -0.040825758
0000c0 eb 8c 3c 3d d6 cf 34 bd
       0.046032827 -0.04414352

fc2.weight f4 [25, 50]
000000 9d c9 1e 3c 5a 3d c1 bd 47 9a 08 3e 8b db 02 be
       0.009691623 -0.0943553 0.13340102 -0.12779061
000010 28 6e fd 3c f7 40 56 3e 44 46 07 be 9d b2 4a 3d
       0.030936316 0.2092322 -0.13210398 0.049486745
000020 42 d2 48 3d 94 36 69 3e 38 63 fd 3d 09 8c e9 3c
       0.049028642 0.22774726 0.1237244 0.028509157
000030 e5 4c 02 3e 0e 63 ca bd f6 6c b1 bd 69 22 e9 bc
       0.12724645 -0.098821744 -0.08663361 -0.02845879
000040 24 f3 11 bd 21 0f 4c 3e e7 17 20 3d fb f0 2e 3b
       -0.035632268 0.19927646 0.039085295 0.0026693929
000050 a0 9b 8f be 9b 52 29 be dc 34 3c 3d e9 c8 cf bd
       -0.2804842 -0.16535418 0.045948848 -0.101457424
000060 50 cc 34 bd 3c 26 04 be 5d 49 f1 bd a8 e1 17 be
       -0.04414016 -0.1290521 -0.11781571 -0.14832175
000070 07 85 d1 bd 56 c9 1b 3d 9f a0 7d 3d 27 aa 03 3e
       -0.10230451 0.038033806 0.06192076 0.12857877
000080 07 35 51 3d 28 e7 58 bd 36 f2 bd 3d d4 66 53 bd
       0.05107596 -0.052954823 0.09274714 -0.051611736
000090 b2 a2 c5 bd 1e 81 80 be cc e4 27 bc 72 cf 52 3e
       -0.09650172 -0.2509851 -0.0102474205 0.20586947
0000a0 da 4e d3 3d 5e c7 3f 3e 73 39 d3 bd be 81 82 be
       0.10317774 0.18728396 -0.10313692 -0.2548961
0000b0 af 7c d7 bd 0f ac 8e 3e 48 16 41 3d 0c f7 dd bd
       -0.105218284 0.27865645 0.04714039 -0.10838136
0000c0 a3 30 26 bd 61 46 27 3d 45 6c 97 bd 6f 16 d9 bd
       -0.040573727 0.040838603 -0.07393698 -0.10599982
0000d0 d2 fb 5c 3e fb 25 c5 bd 0c 8a f2 3c 84 21 26 be
       0.21580437 -0.09626385 0.029606842 -0.16223723
0000e0 4a 23 1c be 67 dd b3 3c c4 ba 71 bd 25 7f 7e bd
       -0.15247837 0.021956159 -0.059016004 -0.062132973
0000f0 7f 51 50 bd 4a a4 09 bc 71 e7 2f bd c2 bb 02 3e
       -0.05085897 -0.008400986 -0.04294533 0.12766936
000100 66 51 db 3d 42 ac fc bc 03 b2 42 bd 67 33 05 3e
       0.10708885 -0.030843858 -0.047533046 0.1300789
000110 33 47 29 3d 70 1b 36 be 7b 52 f9 3d db 2d 06 3e
       0.041327666 -0.17783904 0.12173935 0.1310343
000120 82 df 3c 3c e0 0b 3d 3e ae df 0a 3e 62 ee 21 be
       0.011527898 0.18461561 0.1356189 -0.15813592
000130 c9 5c 50 bd d8 db 19 be 6d 85 d1 bc e0 c3 a9 bd
       -0.050869737 -0.1502527 -0.025576318 -0.08289313
000140 7c 79 f5 3d d0 b5 0b be 67 51 b6 bd 1b 8c b2 bd
       0.11986062 -0.13643575 -0.08902245 -0.08718129
000150 5b 75 bd bd 0d f9 08 3e ce f0 be 3d 2f a5 a2 bd
       -0.092508994 0.13376255 0.093232736 -0.079416625
000160 9b 0d f4 bd a7 68 c4 bc 98 57 c3 bd 29 1d 3a 3e
       -0.119166575 -0.023975683 -0.095381916 0.18175186
000170 ae 08 f8 3c 14 7b 31 3e 14 e5 5a 3e 85 4a c5 3d
       0.030277576 0.17332107 0.21376449 0.09633354
000180 de 79 49 be f7 08 db 3d 5d fe 03 3e 87 26 d1 bd
       -0.19675395 0.10695069 0.1289 -0.10212427
000190 c6 1f 89 bd 55 5f b7 bc 12 3a b6 3c f7 1c 37 3e
       -0.066955134 -0.022384325 0.022244487 0.17882143
0001a0 38 09 41 bd dd d0 5d bd ce 83 f2 bd 45 d9 de 3d
       -0.047127932 -0.054154266 -0.11841546 0.108812846
0001b0 30 e0 35 bd ad 5d 0a be ac 97 80 3d 0e b7 c7 3c
       -0.044403255 -0.13512297 0.06278929 0.02437928
0001c0 d6 ee e1 3c 2a af 6e 3c 44 f7 36 3e 8f e8 01 3e
       0.027579706 0.01456813 0.17867762 0.1268637
0001d0 e0 54 d5 3d 14 98 06 be d6 ef 52 3d 53 34 94 3d
       0.10416579 -0.1314395 0.051498257 0.072365426
0001e0 a5 63 71 be b0 0b 8e bd bb 8f 9d 3d ba 00 f7 bb
       -0.23573168 -0.06935823 0.0769343 -0.0075379284
0001f0 98 6a 84 bd fb ad b3 3d d9 9f 0a 3e c5 51 d6 bd
       -0.06465644 0.087734185 0.1353754 -0.10464815
000200 bc 72 e6 bc 2f 43 fd 3d 8f 36 bf 3d 13 4f c5 3d
       -0.028130881 0.1236633 0.09336578 0.09634223
000210 42 c4 27 bd 49 95 35 bd cd e5 7a 3d 6b f8 4e bd
       -0.04095865 -0.044331823 0.06125431 -0.05052988
000220 b1 86 95 3d 5d 93 fe bd 38 f4 82 3d be bf 13 3e
       0.07301081 -0.12430451 0.06394237 0.14428613
000230 ee c4 01 be ab e3 0b be 24 92 47 3e fc e6 0b be
       -0.12672779 -0.13661067 0.19489342 -0.13662332
000240 77 dd 59 be d7 55 23 39 05 95 8d 3d d6 91 01 3e
       -0.21275888 0.00015576869 0.06913189 0.12653288
000250 fc d7 2b bd 40 a3 90 3e 06 c1 93 bd e8 35 7f bd
       -0.041954026 0.2824955 -0.07214551 -0.06230727
000260 52 31 5a bd 1a 65 00 3e 45 8e 10 3d ce df 59 bd
       -0.05326969 0.12538567 0.03529193 -0.053191952
000270 0e cc e2 bc db 13 53 3e 85 bd 0f 3c d5 83 b0 bd
       -0.027685191 0.20613043 0.008773212 -0.08618895
000280 09 ec 41 3d f8 b7 8f bd 32 78 e0 bd 2a 8a 6e 3e
       0.04734424 -0.07017511 -0.109604254 0.23294893
000290 30 09 77 3d a6 cc 15 3d cc 8e 4b 3e 97 6a 16 be
       0.060311496 0.03657212 0.19878691 -0.14689098
0002a0 a6 60 2e 3e 16 d2 ba bd 60 5e 89 bc 70 c7 a9 bd
       0.17029056 -0.09122102 -0.016768634 -0.08289993
0002b0 20 d4 a2 bd 3d 0b 97 3e 97 c9 f6 3d 46 30 0b be
       -0.07950616 0.29500762 0.12050169 -0.13592634
0002c0 10 ac fd 3d 84 6c 2f be 21 a2 69 bd b5 ef f2 3d
       0.12386334 -0.17131239 -0.057039384 0.11862127
0002d0 74 66 f1 3d 9c c8 b0 3d a8 93 b2 3c 1f 83 68 be
       0.117871195 0.08632013 0.021798924 -0.22706269
0002e0 72 f0 c9 bd 95 cc 04 be a8 72 e0 3d 51 94 6c 3d
       -0.098603144 -0.12968667 0.10959369 0.057758633
0002f0 95 cd 84 3b bb f6 b9 bd 13 b7 0d 3d 8f 1b 04 3e
       0.0040528276 -0.09080263 0.03459842 0.12901138
000300 77 31 32 3d 89 ef 05 3e 23 6b f7 3c 51 a4 68 3e
       0.043504205 0.13079657 0.030202454 0.22718932
000310 7d 4a 08 bd 62 f4 27 be 23 13 3e be 2f 70 75 be
       -0.033274163 -0.16401818 -0.18561988 -0.23968576
000320 0e 56 2f be 7b 0e e4 bc 59 ef ad bd c4 a9 27 be
       -0.17122671 -0.027838936 -0.084929176 -0.16373354
000330 44 39 1b be e1 69 24 bc 18 ef a2 bd 38 b2 00 be
       -0.15158564 -0.010035009 -0.0795576 -0.12567985
000340 c3 49 69 3d 53 ad 96 bd fe 09 67 3d 36 c5 dd 3c
       0.05695511 -0.07357278 0.056406014 0.027071577
000350 09 62 df bd b8 1b 41 be 06 dc 2c 3e 99 fa ee bd
       -0.109073706 -0.1885823 0.16880807 -0.116688915
000360 6c 72 ae bd 8b c7 86 bd 3a 5f 8f 3d 02 b5 ea bd
       -0.08517918 -0.065810286 0.07000585 -0.11460306
000370 41 27 6c 3d d9 6a 2d be 82 98 db 3d 00 13 d8 3d
       0.057654623 -0.1693529 0.10722448 0.10550499
000380 bb c7 00 3e cf ba 12 3e ee db 9a 3d e9 60 af 3d
       0.12576191 0.14329074 0.075614795 0.08563406
000390 b2 66 f6 3c c8 99 fc 3d a0 80 38 bd 22 1f 14 3e
       0.030078266 0.12334019 -0.04504454 0.14465001
0003a0 f4 51 4a 3e 0d b9 05 3d f8 ee f7 3d 0b 3d 1c be
       0.19757825 0.03264718 0.121061265 -0.15257661
0003b0 56 ec fc 3d f6 c7 76 bd 39 46 3b be 2e f6 b4 bd
       0.12349765 -0.06024929 -0.18288507 -0.088360175
0003c0 53 91 cc bd 59 d7 b9 bd d9 48 01 be 27 85 bb 3d
       -0.09988656 -0.090742774 -0.12625445 0.09156256
0003d0 8c dc 41 3e aa 50 70 3d 8c ea b5 3d cc bb 32 3e
       0.18931788 0.058670677 0.08882627 0.17454451
0003e0 54 33 87 3d 4c 2b c8 3d 93 48 c7 bd a0 58 a6 3d
       0.06601587 0.09773883 -0.09730639 0.081223726
0003f0 ed a6 10 be 63 50 22 bd dd 13 40 3d 70 3d fd 3c
       -0.14126177 -0.039627444 0.046893943 0.030913085

fc2.bias f4 [25]
000000 fe 82 df bd ac 0c c5 bd fb 65 70 bd 2b 62 bb bd
       -0.10913657 -0.096215576 -0.058691006 -0.091495834
000010 5c a1 1f bd bc b5 2b bd e3 54 cb bd 9b c9 e3 3c
       -0.038972244 -0.041921362 -0.099283 0.027806094
000020 79 1c cb 3d 79 c5 e0 3d 62 60 d3 bd c9 f1 8e 3d
       0.0991754 0.10975165 -0.10321118 0.069797106
000030 a9 75 95 bd f0 05 0b 3c b5 9f d5 3c f7 88 a3 3d
       -0.072978325 0.008485302 0.02607713 0.07985108
000040 cb 71 f4 3d 9f 03 12 3e 02 c3 24 bc 3d 8a 03 3e
       0.11935767 0.14259194 -0.010056259 0.12845702
000050 86 e5 00 3e 8d 32 b6 3d 71 43 66 bd a2 26 90 3d
       0.12587556 0.088963605 -0.05621666 0.070386186
000060 64 5b 84 3d
       0.06462744
